data.pth (torch, 6783 bytes, 6 tensors)

l1.weight f4 [8, 90]
000000 8a bf f6 3e c6 1f a5 be 90 27 a4 be 7b b1 8d 3e
       0.48193008 -0.32250804 -0.32061434 0.2767447
000010 93 93 24 3e f5 d3 6d 3e 15 3b fa 3e c9 34 a1 3e
       0.1607192 0.23225386 0.488732 0.31485584
000020 1a 3f 94 3e 90 89 0a 3f 61 1a fe bd e0 10 ce be
       0.28954393 0.54116154 -0.12407375 -0.4024725
000030 d8 3c 07 3f a2 89 04 bf 98 8f 01 be 85 af 1a 3f
       0.52827215 -0.5177251 -0.12652433 0.6042407
000040 f8 ed f0 3c a9 c9 0d 3d 90 00 26 be 1f 95 f0 3e
       0.029410347 0.034616146 -0.16211152 0.4698877
000050 fa f1 27 3f 7f 85 29 3f 8f 11 95 3e 3c 3d 36 3f
       0.656036 0.66219324 0.2911496 0.71187186
000060 b9 94 d1 3e 6a 1c 48 3f c6 0c 9d bd 37 e1 3d be
       0.4093378 0.78168356 -0.07668452 -0.18542944
000070 d2 d4 cd 3e 21 7d 07 3f eb cf 0d be 0f 85 ec bd
       0.40201432 0.52925307 -0.13848846 -0.115488164
000080 3c 43 04 be c7 d4 f8 bd c3 4c 7c 3e b1 14 2b 3f
       -0.12916273 -0.12149959 0.24638657 0.6682845
000090 5c b6 11 be 23 30 13 3f 3f cf 18 3f 7b 01 a2 be
       -0.14229721 0.57495326 0.5969123 -0.31641755
0000a0 c3 e8 26 3f 95 36 e9 3e 5b 4f 73 be 8e 8a e3 3e
       0.65198916 0.45549455 -0.2376074 0.44441646
0000b0 5b 2e 26 3e 4a 8f b2 be 83 f5 27 3e d1 86 d1 be
       0.1622862 -0.34874946 0.16402249 -0.4092317
0000c0 28 85 75 bc 2b 0b 0d 3f 14 a5 f5 3c 95 94 23 3f
       -0.01498536 0.55095166 0.029985942 0.63898593
0000d0 79 a9 c5 3e 7b 47 91 be d8 64 bd 3e 64 ee 0b 3f
       0.3860586 -0.28374848 0.36991 0.5466063
0000e0 a7 bf 1a be 71 21 06 3f e3 11 9b 3c 28 61 07 3f
       -0.15112172 0.5239478 0.018929427 0.52882624
0000f0 ae 4f d2 3e b0 87 0a bf 58 b2 e1 be 00 5b a5 39
       0.41076416 -0.5411329 -0.44081378 0.00031539053
000100 b0 04 ec 3b de 16 7a bc 53 77 25 bd 48 35 f3 3e
       0.007202707 -0.015264241 -0.040397 0.47501588
000110 79 1d 65 be 69 66 4a be 58 1e d2 3e 62 2f b3 3e
       -0.22374524 -0.19765629 0.41038775 0.34997088
000120 03 9c 5f bd ea ce 4f bd 4c 12 18 3f 69 c2 f3 bd
       -0.054592144 -0.050734438 0.5940292 -0.11902315
000130 7e f4 48 bf 94 13 a5 be e4 c4 50 bd 5b b0 f1 3e
       -0.78498065 -0.322415 -0.05096902 0.4720486
000140 e5 c7 5c be 80 8c e1 bd 00 b8 30 3f ef d1 fe 3e
       -0.21560629 -0.110131264 0.6903076 0.49769542
000150 44 c4 f6 3d 1a de a3 3e d7 f7 22 be 4d bc 93 3d
       0.120491534 0.32005388 -0.15914856 0.0721365
000160 a3 ba b2 3e 60 ad 6a b9 24 6c 6b 3e 0c d0 23 3f
       0.34908018 -0.00022380566 0.22990471 0.6398933
000170 ac 97 4c 3e 2e 91 b4 3e f3 8e 9e be b8 ef d8 be
       0.19979733 0.35267013 -0.30968437 -0.4237039
000180 8b 2d 2f be 7b 7a 05 3f 46 86 f4 3e c3 5d 6e bd
       -0.17107217 0.52140015 0.47758693 -0.058194887
000190 99 34 1d bf 48 be a1 bd 49 60 1e 3e b4 ab a1 3d
       -0.6140838 -0.078976214 0.15466417 0.07894078
0001a0 7d c2 c4 3e 38 2a f6 3d e0 0a 01 bf ef de 80 3e
       0.38429633 0.12019771 -0.5040722 0.25170085
0001b0 67 eb 8f be 11 35 e0 3e 19 d2 c9 bb c4 78 2e be
       -0.28109285 0.43790486 -0.006159079 -0.17038256
0001c0 f0 d3 c1 bc e7 52 e2 bc 84 1d 47 3e e3 c4 aa be
       -0.02366063 -0.027627422 0.19444853 -0.33353338
0001d0 9e 5b 0c be 61 73 9f 3e c3 10 14 3f ad 21 0e 3f
       -0.13706824 0.31142715 0.57838076 0.55520135
0001e0 ae 0a 12 bf 4b 0f 4b be bd 5b fa bd 93 a2 ba be
       -0.57047546 -0.19830053 -0.12224529 -0.3645216
0001f0 98 2f 5b bd 7d 09 35 3f 2d 17 4c 3e 43 50 4a 3f
       -0.053512186 0.707176 0.19930716 0.7902872
000200 94 97 32 3f 94 2b 63 be 40 a0 ca 3e 08 8c c6 3b
       0.6976254 -0.22184592 0.39575386 0.0060591735
000210 fd a8 64 be 4d 8d 0a 3f 94 ee a5 be ea f3 4a 3e
       -0.22330089 0.5412186 -0.32408583 0.19819608
000220 76 0e 72 be c8 db 96 3c 01 d1 e1 be 41 79 25 bd
       -0.23638329 0.018415347 -0.4410477 -0.04039884
000230 eb 28 b3 3e 6c ec 17 be 12 1b e0 3e e1 36 7c 3c
       0.34992155 -0.14836282 0.43770653 0.0153939435
000240 c1 ed 02 be d8 a9 eb be de ce 09 bd 89 17 3f 3d
       -0.12786008 -0.46028018 -0.03364455 0.046653304
000250 b3 07 a3 be 69 41 0b 3e b9 bc f5 be 05 ca c2 3e
       -0.31841812 0.1359917 -0.47995546 0.38044754
000260 97 50 b0 3e bb 24 0d bf 85 58 a6 be 74 32 b7 be
       0.34436485 -0.5513417 -0.3248941 -0.3578068
000270 d0 dc c4 be d1 11 42 bc e7 98 4e be 79 47 fa 3d
       -0.38449717 -0.011845068 -0.20175515 0.122206636
000280 66 37 12 3d 75 2b 2a be ed 28 89 bb 5c 31 fc bd
       0.035697363 -0.1661814 -0.004185787 -0.12314102
000290 0c 73 22 3e e1 fc c8 3e 8e 9b 8e 3f 2d f2 14 3f
       0.158642 0.3925543 1.1141222 0.5818203
0002a0 ed 08 04 bf 2e e7 79 3e e9 60 f3 bc a3 d2 1b be
       -0.5157612 0.24404594 -0.029709296 -0.1521707
0002b0 1d 13 53 3d 23 b0 2e be 8d 7d 26 bf d9 61 e5 3e
       0.0515319 -0.17059378 -0.65035325 0.44801214
0002c0 30 29 2a be 0d 6c b1 be 22 9b 9b 3e 6a 7e 80 3e
       -0.16617274 -0.3465275 0.30391794 0.25096446
0002d0 66 1a 34 3f a2 80 b4 be 0e ca 00 bf f8 1c de 3e
       0.7035278 -0.3525439 -0.5030831 0.43381476
0002e0 1c 03 fd 3e 30 7f 80 3e 0a 07 b9 3d ce 8e 88 3d
       0.49416435 0.25097036 0.09034546 0.06667863
0002f0 d6 d0 38 bf b2 1c 80 3e d6 f1 9c bd 81 ba 89 be
       -0.7219366 0.25021893 -0.07663314 -0.26900104
000300 d7 53 0f 3f 5d 70 23 3f 0f 4e ed 3e 30 8c ca bc
       0.55987304 0.6384333 0.46348616 -0.02472505
000310 4a c0 74 3e 09 9e ed 3e 4d 42 19 3f 44 91 a2 bd
       0.23901477 0.46409634 0.5986679 -0.079378635
000320 ae d9 ab 3e 74 b5 0b be 98 c0 ea 3d ff b8 b1 3e
       0.33564514 -0.13643438 0.114625156 0.34711453
000330 8f cb 03 3f a9 35 dc 3e aa 8b ad be 63 3b a8 be
       0.5148248 0.4300969 -0.33895618 -0.32857808
000340 9c 4e a3 3e a9 59 0b bd 16 ad 91 bd dd 99 ce be
       0.31895912 -0.034021053 -0.07113092 -0.40351763
000350 09 ea d8 3e 67 5b 9a 3d 8f d2 2c 3d 2c fd cf be
       0.42366055 0.07536965 0.04219299 -0.40622842
000360 aa 8a 18 3f 6e 61 1c be c4 87 80 be b7 f4 ca be
       0.59586585 -0.15271541 -0.2510358 -0.39639828
000370 bc 60 5e 3e 64 5a 44 3f f3 32 da 3e de 08 a5 3d
       0.21716589 0.76700425 0.42616996 0.08058332
000380 d6 e5 7b be 04 67 6f be b0 4e f6 bc 48 2d 82 bd
       -0.24599394 -0.23379141 -0.030066818 -0.06356293
000390 48 97 ef bd de 5a d0 3e 73 89 66 3c 58 0c bd bc
       -0.116987765 0.40694326 0.014070856 -0.023077175
0003a0 84 5d 0f 3f 90 9c 2a 3f 84 28 8f 3c 6a 0c bd 3e
       0.5600207 0.66645145 0.017475374 0.36923534
0003b0 f6 3b 8f 3e 42 6a 07 3f 7a fb ae 3e 9b 15 59 bd
       0.27975434 0.5289651 0.34176236 -0.05299912
0003c0 e4 15 07 3e af ce 20 be d5 ec 4e bd 50 56 c9 be
       0.13191944 -0.15703844 -0.05051883 -0.39323664
0003d0 c4 13 4a 3f 35 df 39 3d e7 ad bd be 68 40 6f 3e
       0.7893641 0.045378882 -0.3704674 0.23364413
0003e0 83 d5 ab be e0 09 d1 be fa 3d 14 3f 21 9a 7c bd
       -0.33561334 -0.40827847 0.5790707 -0.061670426
0003f0 94 02 05 3f df 3e 66 be e6 94 13 3f 4d 8e b3 be
       0.5195706 -0.22484921 0.57649076 -0.35069504

l1.bias f4 [8]
000000 85 f6 48 3f 20 b9 4e 3f 94 9a d7 3e 7d a7 48 3f
       0.7850116 0.8075123 0.4211012 0.78380567
000010 75 ef 8e 3f 33 f5 61 3f d0 be 73 3f c7 e6 c7 3e
       1.1166826 0.8826477 0.9521303 0.39043257

l2.weight f4 [8, 8]
000000 eb 77 be 3f 2f 0c 86 3f 9c 1a 70 3e 79 e1 ce 3e
       1.4880346 1.0472468 0.2344765 0.40406397
000010 87 cf 33 3f 92 b1 ad 3f 3f 36 4f bf a6 40 a4 3f
       0.70238537 1.3569815 -0.8094215 1.2832229
000020 67 19 0b 3e b9 54 9a bf 3a bc 5d 3f 3f 67 3f 3e
       0.13583909 -1.2057105 0.86615336 0.18691729
000030 1a 4c 89 3c 62 4f da 3e da 8c d5 3f 4b cd 2b bf
       0.01675992 0.4263869 1.668361 -0.6711013
000040 31 7d 05 3d 03 a2 2a 3e 49 ff e9 be 6a a6 c0 bf
       0.032590095 0.16663365 -0.4570258 -1.5050786
000050 62 0e 0c 3f c8 20 08 3f ec 48 d8 3e 27 2b 22 3f
       0.54709446 0.5317502 0.42243135 0.63347095
000060 0b bd 7d 3f 6b 42 aa bd 83 a9 c3 3f 1e 98 8f be
       0.9911658 -0.083134495 1.5286106 -0.28045744
000070 54 e6 4d bf 04 69 79 3b c7 5b ec 3d c8 27 a8 3f
       -0.8042958 0.003805698 0.11540943 1.313714
000080 d9 02 07 3f d0 1a 64 3e 03 ee f3 3e 5a 64 91 bf
       0.5273872 0.22275853 0.47642526 -1.135875
000090 99 b6 85 3f a7 cf df 3f 70 39 27 3e 84 60 1b bf
       1.0446349 1.7485245 0.16330504 -0.60694146
0000a0 bc a5 72 bf 89 b1 df 3f 0a d9 26 bf ad ce 55 3f
       -0.9478414 1.7476054 -0.65174925 0.8351849
0000b0 02 32 90 3f 7f f6 d5 be 64 7d 3b 3f 53 b8 4c 3f
       1.1265261 -0.41789624 0.73238206 0.79968756
0000c0 1e d2 c4 bc 43 b0 b4 3c 70 d9 14 3f 96 17 b1 bf
       -0.024025973 0.022056704 0.58144283 -1.3835323
0000d0 55 91 73 3c 5a f4 3e 3f c4 e7 b7 3e 7d 5b 84 3f
       0.014866193 0.745916 0.3591901 1.034042
0000e0 65 01 0b 3e ec 90 38 bf 99 f7 27 bc a6 bf 94 bf
       0.1357475 -0.72096133 -0.010251903 -1.1620986
0000f0 53 77 ff be 8d 10 c4 3d 3f 17 40 3f e8 35 70 3f
       -0.49895725 0.09573469 0.7503547 0.93832254

l2.bias f4 [8]
000000 40 e6 f7 3e 51 19 5b 3f 27 56 d2 be b4 ee 77 be
       0.48417854 0.85585505 -0.41081354 -0.24212152
000010 06 66 15 3f be 56 ca 3c f5 15 b7 be 24 fc 44 be
       0.583588 0.024699565 -0.3575894 -0.19236809

l3.weight f4 [12, 8]
000000 ba 66 a6 be 9e 46 7f be 04 61 6a 3d 5c 49 08 3e
       -0.3250025 -0.24929282 0.057221428 0.13309234
000010 9f 56 68 bd 04 c8 c4 bf 24 0a d0 3e f2 47 1b 3f
       -0.056723233 -1.537354 0.40632737 0.60656655
000020 79 7f b0 3e 30 d9 cc bf a0 8b af bf 20 8b 20 3f
       0.34472254 -1.600378 -1.3714485 0.6271229
000030 20 63 f0 bc f7 b0 89 bf ea 50 38 3e 3c e1 05 bf
       -0.029344141 -1.075713 0.17999616 -0.52296805
000040 5a 86 cd bf 99 c1 0c 3f 25 7b ac bf a9 b0 ce 3e
       -1.6056626 0.54982907 -1.3475081 0.40369156
000050 21 70 1d 3e 9a 8b d7 bf 8a 4d 1d 3e f4 9e c1 3e
       0.15374805 -1.6839478 0.1536161 0.37816584
000060 83 be 67 bf 58 92 a6 3e 47 d5 ad bf 71 e1 61 bf
       -0.9052507 0.32533526 -1.3580712 -0.8823462
000070 f6 c3 96 bf bc 79 54 3f 16 df 5f bf 99 b0 9e bf
       -1.1778553 0.8299825 -0.8744978 -1.2397643
000080 00 fa 85 3d 6f 01 54 3f fb 42 f4 bf 90 1c 04 c0
       0.06541824 0.8281469 -1.9082941 -2.0642433
000090 8e 18 4d 3f 9d ec eb be 72 37 02 c0 56 10 e5 bf
       0.8011559 -0.4607896 -2.034634 -1.789561
0000a0 ea c6 5b 3f 2d 46 db bf 7c 5e b7 be 78 1a 96 bf
       0.85850394 -1.7130791 -0.35814273 -1.1726828
0000b0 7b 27 17 3f bc 27 93 3d 45 1b 04 bf 52 fe 0d c0
       0.5904462 0.07185313 -0.5160411 -2.2186475
0000c0 7b cb 3f 3e 91 d2 0f bf f0 61 1a 3f 01 8a e4 bf
       0.18729965 -0.56180674 0.6030569 -1.7854615
0000d0 04 04 39 3f 55 93 48 bf 52 46 33 3e be 9a 9c bf
       0.7227175 -0.7834981 0.17507294 -1.2234724
0000e0 64 f2 9c 3e 87 8a bc 3e 79 2a 72 bf 42 fd 2f 3f
       0.3065368 0.36824438 -0.9459606 0.68745816
0000f0 e2 38 a5 bf 25 a8 a6 bf 14 9b d2 bf 3a 69 8b bf
       -1.2907984 -1.3020064 -1.6453576 -1.0891488
000100 cf 48 a4 3c 6c 19 9f bf d3 3c 31 3f 64 ef 89 bc
       0.02005425 -1.2429633 0.69233435 -0.016837783
000110 34 1d d9 bc 19 95 3f 3d bc 68 ef 3e 12 d1 08 bf
       -0.026503183 0.04677305 0.46759593 -0.53444016
000120 f5 74 5e be 3b 65 2c 3e 27 fb a3 bf 9f 94 8a 3e
       -0.21724303 0.16835491 -1.2811021 0.27066514
000130 81 ac fd 3e f1 ef 61 bf 14 50 a7 bd dd c0 b5 bf
       0.49545673 -0.88256747 -0.081695706 -1.4199482
000140 e9 63 9a bf b4 2d de 3e c9 ae a6 3e 3b 9a 9d bf
       -1.206174 0.43394244 0.32555225 -1.2312692
000150 8b b2 66 be eb a7 22 be 9a b3 44 be 93 c5 ab 3e
       -0.22529046 -0.15884368 -0.19209138 0.33549175
000160 ff 77 01 3f 71 df df bf 81 99 b2 bf 18 4d 49 bf
       0.50573725 -1.7490064 -1.3953096 -0.7863326
000170 79 1e ad bf e8 ae 8a 3f 45 0f 43 bf 0e 60 4f bf
       -1.3524925 1.0834627 -0.76195174 -0.8100594

l3.bias f4 [12]
000000 97 d4 3e bf e4 a7 28 3e 9c 7a 78 be c9 bf a0 3e
       -0.74543136 0.16470295 -0.24265522 0.3139632
000010 5e c9 22 3f 9a bc 75 bd 72 d1 48 be 8d 89 27 3f
       0.6358851 -0.059994318 -0.19611147 0.6544426
000020 9b b0 b8 be 3c de e6 be fa 50 4d 3d 8b f4 6c 3e
       -0.3607224 -0.45091426 0.050126053 0.2314016
